app/src/main/assets/Mnist/models/LeNet_p20-sim.onnx (onnx, 251765 bytes, 18 tensors)

1 f4 [6, 1, 3, 3]
00000000: ea1f 86be 0a05 6a3e c0e2 6e3d 521c 4d3e
00000010: b4a9 83be 734c 953e 7788 953e 84c2 c73d
00000020: 5070 5ebe 9034 ae3d 06e1 75be 60e6 21bc
00000030: c84d 1b3e c08a c63b 2c5a 88bd a038 76be
00000040: c018 e93b 4ab8 0d3e a2c4 4a3e dc7d ebbd
00000050: 1ae9 0e3e 5b57 a0be d373 46be 3071 883d
00000060: 189f 50bd e466 b43d 44c1 c13d 7d5e 9a3e
00000070: a48d 883d 6fa1 89be 7d0a 843e 4c87 873d
00000080: b7d5 81be bffa 86be 5818 4cbe 2c9a d9bd
00000090: 2660 4b3e f001 93be d827 25be 3609 e8bd
000000a0: a8b4 113e d0c1 a7be 7804 483d 0493 ea3d
000000b0: 46ab 123e 3ace 3a3e 3af2 5f3e 2298 7d3e
000000c0: 7c0d d03d 19c2 933e 3477 973d 93b0 15be
000000d0: dd06 803e e373 a53e
-0.26196223 0.22853485 0.058321714 0.20030335 -0.2571541 0.2915989 0.29205677 0.09753898
-0.21722531 0.08506119 -0.24011621 -0.009881586 0.1516639 0.0060590208 -0.06657824 -0.24045038
0.007113546 0.13839832 0.19801572 -0.11498615 0.13956109 -0.31316647 -0.19380121 0.06662214
-0.050932974 0.08808687 0.094606906 0.30150214 0.06667641 -0.26880977 0.25789252 0.06617603
-0.25358364 -0.2636318 -0.19931161 -0.10625109 0.19860896 -0.28712416 -0.1612848 -0.11329882
0.14229071 -0.32765055 0.048832387 0.11453822 0.14323148 0.18242732 0.21869746 0.24765065
0.10158822 0.28859022 0.07395783 -0.14618139 0.25005236 0.32314977

10 f4 [120]
00000000: 0000 803f 0000 803f 0000 803f 0000 803f
00000010: 0000 803f 0000 803f 0000 803f 0000 803f
00000020: 0000 803f 0000 803f 0000 803f 0000 803f
00000030: 0000 803f 0000 803f 0000 803f 0000 803f
00000040: 0000 803f 0000 803f 0000 803f 0000 803f
00000050: 0000 803f 0000 803f 0000 803f 0000 803f
00000060: 0000 803f 0000 803f 0000 803f 0000 803f
00000070: 0000 803f 0000 803f 0000 803f 0000 803f
00000080: 0000 803f 0000 803f 0000 803f 0000 803f
00000090: 0000 803f 0000 803f 0000 803f 0000 803f
000000a0: 0000 803f 0000 803f 0000 803f 0000 803f
000000b0: 0000 803f 0000 803f 0000 803f 0000 803f
000000c0: 0000 803f 0000 803f 0000 803f 0000 803f
000000d0: 0000 803f 0000 803f 0000 803f 0000 803f
000000e0: 0000 803f 0000 803f 0000 803f 0000 803f
000000f0: 0000 803f 0000 803f 0000 803f 0000 803f
00000100: 0000 803f 0000 803f 0000 803f 0000 803f
00000110: 0000 803f 0000 803f 0000 803f 0000 803f
00000120: 0000 803f 0000 803f 0000 803f 0000 803f
00000130: 0000 803f 0000 803f 0000 803f 0000 803f
00000140: 0000 803f 0000 803f 0000 803f 0000 803f
00000150: 0000 803f 0000 803f 0000 803f 0000 803f
00000160: 0000 803f 0000 803f 0000 803f 0000 803f
00000170: 0000 803f 0000 803f 0000 803f 0000 803f
00000180: 0000 803f 0000 803f 0000 803f 0000 803f
00000190: 0000 803f 0000 803f 0000 803f 0000 803f
000001a0: 0000 803f 0000 803f 0000 803f 0000 803f
000001b0: 0000 803f 0000 803f 0000 803f 0000 803f
000001c0: 0000 803f 0000 803f 0000 803f 0000 803f
000001d0: 0000 803f 0000 803f 0000 803f 0000 803f
1.0 1.0 1.0 1.0 1.0 1.0 1.0 1.0
1.0 1.0 1.0 1.0 1.0 1.0 1.0 1.0
1.0 1.0 1.0 1.0 1.0 1.0 1.0 1.0
1.0 1.0 1.0 1.0 1.0 1.0 1.0 1.0
1.0 1.0 1.0 1.0 1.0 1.0 1.0 1.0
1.0 1.0 1.0 1.0 1.0 1.0 1.0 1.0
1.0 1.0 1.0 1.0 1.0 1.0 1.0 1.0
1.0 1.0 1.0 1.0 1.0 1.0 1.0 1.0
1.0 1.0 1.0 1.0 1.0 1.0 1.0 1.0
1.0 1.0 1.0 1.0 1.0 1.0 1.0 1.0
1.0 1.0 1.0 1.0 1.0 1.0 1.0 1.0
1.0 1.0 1.0 1.0 1.0 1.0 1.0 1.0
1.0 1.0 1.0 1.0 1.0 1.0 1.0 1.0
1.0 1.0 1.0 1.0 1.0 1.0 1.0 1.0
1.0 1.0 1.0 1.0 1.0 1.0 1.0 1.0

12 f4 [84, 120]
00000000: 40bf 98ba fe29 81bd e035 6a3c 3057 683c
00000010: 88e7 7b3c e615 993d 51b7 81bd a76a 64bd
00000020: 4c41 f5bc d8af d7bc ce8a 70bd e826 873d
00000030: 4a0d 903d bce3 0a3d 20d5 92bc c014 993c
00000040: 600b edbb 530b 9ebd 34d7 d8bc eb0b 90bd
00000050: 805d c53a 40f5 553c 9001 793d 9084 2e3d
00000060: 0b0b 05bd 36f2 9cbd 40f9 aebc 54a7 ed3c
00000070: d094 b1bc 488b 6a3d 20ba 623b 4045 ecba
00000080: cc02 a4bc 7017 af3d 1c34 aa3d 24e8 d5bc
00000090: 1419 133d d081 7f3c 3064 10bd a131 20bd
000000a0: 4859 7d3c 146b 8f3d 909f b9bb e8bc 3d3c
000000b0: b628 f3bc b695 a43d 6c93 343d a82d 88bd
000000c0: eca4 4e3d 68e7 a5bd f43c a73d 7029 483d
000000d0: d0c7 0ebc e88d 543d fed2 babd acfb a53c
000000e0: a41e a6bc 0051 553b 8e1f f9bc 40a7 0c3d
000000f0: 50a4 33bd 83cd 95bd 244b 8d3c a4e3 5cbd
00000100: 558e 9bbd 007f 05ba 5ca3 993d 80d2 5cbc
00000110: 7a43 b9bd 528c 5ebd 60e0 143c 9501 5dbd
00000120: 64d6 9abc 6056 483b 68b7 92bc e0f8 99bc
00000130: 8d6e b1bd 22f3 af3d 00c0 4c3b d8a2 3ebd
00000140: 241f 3c3d 7403 993d f2ba 093d e29a b6bd
00000150: abf2 b0bd 4054 9fba 9481 bc3c 588a b53c
00000160: bc62 183d 38b4 2f3c 00f6 fe3a ec0b 56bd
00000170: a00b ca3c 8c6d 26bd 509d 86bb 1324 67bd
00000180: c0c6 193d baee af3d 048d c63c 0bce 09bd
00000190: e06c c23c 58c1 12bc 164b 2dbd 00c1 fc3c
000001a0: 608a 4e3b 01b0 9fbd 27c5 88bd c85e d9bc
000001b0: 52d1 a73d 0477 203d d869 283d dcac b2bd
000001c0: 7c83 ab3d 60af bdbb 0004 e9b8 c033 1ebc
000001d0: cc32 a9bc f867 463d b401 ac3c c83b 283c
000001e0: f463 4e3d 4051 fb3a 41a9 4fbd 8ea2 013d
000001f0: c2b7 903d 3ca9 5bbd f458 4ebd ccf9 f1bc
00000200: 8c45 bf3c 40bd adbd 0ae4 863d 0cd5 b83d
00000210: 03be 30bd b43b 5c3d d0b6 743d 9ced 8c3c
00000220: 58ff 9dbd 91ab 82bd 8239 28bd c0bd dbba
00000230: 80f8 a5bc 10b1 863d b4f7 b63c 3d63 85bd
00000240: a829 783d a0a2 e4bb 506e 54bc e098 a53b
00000250: e69f 7dbd 7816 4c3d 488a d3bc b046 a5bd
00000260: 71b6 04bd 1cdf 313d 8018 a33a 5ab6 32bd
00000270: 85ae 9dbd 8073 87bb a0a8 5f3c 305f 36bc
00000280: a894 893c dc3a 413d f0be 06bd 0603 30bd
00000290: 78bb acbd 75d0 5cbd 1025 f93c 80f3 adbb
000002a0: 64ba 783d a0b8 9e3b ac7f a13c 6489 f53c
000002b0: 6311 83bd e01a 1dbb 7ca8 a8bc 805f 893c
000002c0: 2533 46bd a08e 8dbc c090 b5bb d466 533d
000002d0: 08ad 3abc 8929 25bd 5ab9 a53d 9c1d a1bd
000002e0: 3490 db3c 36ce 8fbd 7600 1cbd 285d 21bc
000002f0: d419 c2bc 2989 1bbd 608a 0c3d 3263 863d
00000300: 8e91 8f3d 7dcf 78bd b02e ca3c 28a0 aebc
00000310: 2f10 b1bd 18fb 8f3d b45e 153d 96b6 b7bd
00000320: 80f5 c5bc a08a 523b 974e 82bd 6de3 56bd
00000330: e607 8fbd 20a6 883b 60b0 233d c6fe b23d
00000340: f416 adbd 06cd 853d 0065 7cbb 0452 c73c
00000350: 100a ea3c 2738 09bd 0040 1338 3e1a b73d
00000360: 5cca a83d 7451 71bd a7e1 3bbd 1c3e 7d3d
00000370: 1c29 093d 587f 913c 4c0e ce3c d459 853d
00000380: 38b3 9f3c ecac 95bd 6f0e 45bd 6661 78bd
00000390: a743 80bd fb68 57bd 8d9d 3bbd 601c 63bc
000003a0: aca9 a73d 8071 123d 404a e83b 3080 433c
000003b0: 50ee 853c bce9 1e3d 6cc1 b53d 99b2 59bd
000003c0: 8078 f93a 2790 b2bd 5684 893d a02f 943d
000003d0: 2444 9bbd 369d a33d 8802 273d 76e3 76bd
000003e0: f246 2abd 3630 b53d 76c9 043d 5425 6abd
000003f0: 2c28 3d3d 0c1e 51bd 2899 ba3d 9409 113d
-0.0011653677 -0.063068375 0.014295071 0.014180943 0.015375026 0.0747488 -0.06333793 -0.055765774
-0.029938363 -0.026328966 -0.058726124 0.06599218 0.07033785 0.03390859 -0.017923892 0.018686652
-0.007234022 -0.07717004 -0.026469804 -0.07033523 0.0015057772 0.01305896 0.060792506 0.04260689
-0.032481235 -0.076633856 -0.021359086 0.029010452 -0.021677405 0.057261735 0.0034595802 -0.0018026009
-0.020020865 0.08549392 0.0831072 -0.02611167 0.03591259 0.015594915 -0.035251796 -0.03910983
0.015463181 0.070028454 -0.0056647733 0.011580683 -0.029682498 0.080363676 0.044085905 -0.06649333
0.05045025 -0.08100778 0.08165923 0.048867643 -0.008714631 0.051893145 -0.09122275 0.020261608
-0.020278282 0.00325495 -0.030410554 0.03433919 -0.043857872 -0.07314589 0.017247744 -0.053928033
-0.07595507 -0.0005092472 0.075018615 -0.0134779215 -0.09046073 -0.05433304 0.009086698 -0.053956587
-0.018901058 0.0030569062 -0.01790972 -0.01879543 -0.08663664 0.08591296 0.003124237 -0.04654202
0.045928136 0.07471362 0.03362555 -0.0891626 -0.08640035 -0.0012155846 0.023011006 0.022160694
0.037203535 0.01072412 0.0019451976 -0.052257463 0.024663746 -0.040631816 -0.0041081086 -0.056430887
0.03754306 0.08590455 0.024237163 -0.033643764 0.023733556 -0.00895723 -0.042307936 0.030853748
0.0031515583 -0.07797242 -0.06678229 -0.026534453 0.081942216 0.039176002 0.041116565 -0.087243766
0.08374688 -0.0057887286 -0.00011111051 -0.009655893 -0.020654105 0.048438996 0.020996906 0.010268159
0.05038829 0.0019173995 -0.050698522 0.031649165 0.07066299 -0.05362819 -0.0503778 -0.029538058
0.023348592 -0.08483362 0.06586464 0.090250105 -0.04314996 0.053767875 0.059744656 0.017203145
-0.077147186 -0.0638038 -0.04107047 -0.0016764924 -0.020260096 0.06576741 0.02233491 -0.06513069
0.0605866 -0.006977394 -0.012965754 0.0050536245 -0.06192007 0.049826115 -0.025822774 -0.08070123
-0.032400552 0.043425664 0.0012443215 -0.043630935 -0.076993026 -0.0041336417 0.013651043 -0.011131093
0.016794518 0.047175273 -0.032896936 -0.042971633 -0.08434194 -0.053909738 0.03041318 -0.0053085685
0.06072463 0.0048437864 0.019714199 0.02997274 -0.06399801 -0.0023972318 -0.020588152 0.01676917
-0.04838862 -0.017279923 -0.005540937 0.051611736 -0.011393793 -0.040322814 0.08091994 -0.07866976
0.02680216 -0.070217535 -0.038086377 -0.00984887 -0.023693956 -0.037972603 0.034311652 0.06561889
0.07010184 -0.06074475 0.024680465 -0.021316603 -0.08645665 0.07030314 0.03646727 -0.089703724
-0.024164915 0.0032126084 -0.06362646 -0.052462984 -0.069839284 0.0041701943 0.039963126 0.087400004
-0.084516436 0.06533246 -0.003851235 0.0243311 0.028569251 -0.033500817 3.5107136e-05 0.08940552
0.08241722 -0.05891557 -0.045869496 0.06182681 0.03348647 0.017760918 0.025153302 0.06511274
0.019494638 -0.07308373 -0.048109468 -0.06063976 -0.06262904 -0.05259035 -0.04580455 -0.013861746
0.08186659 0.035752773 0.0070889294 0.011932418 0.016348988 0.038797125 0.08874783 -0.05314884
0.0019033104 -0.08718901 0.06714694 0.07235646 -0.07581356 0.0798897 0.0407739 -0.060275517
-0.041571565 0.08847086 0.03241869 -0.057164505 0.04618089 -0.051054046 0.091112435 0.035409525

13 f4 [84]
00000000: ec33 243d d8e9 77bc 6f58 0dbd b743 83bd
00000010: 84f6 8bbd e8f0 05bc 80df dfbc 2afe 09bd
00000020: f076 403c d8d6 34bc a4f3 343d 80dc 203b
00000030: 13a8 0abd fb35 abbd 0367 aebd 3097 b43d
00000040: a553 b8bd 2711 8cbd 98fe 15bc bc56 2a3d
00000050: 785b 3c3d 8d20 36bd 18a1 963d 9087 66bc
00000060: f873 bf3c f24d 25bd 04b0 5a3d 609d 10bc
00000070: 70bc 91bd ff5a 44bd e8da 62bd 8087 e4bc
00000080: 7886 a83d d092 6a3d a476 f53c acd0 363d
00000090: 2ed0 5ebd 2805 283d c0f1 343d c0ad 95bb
000000a0: 3ca2 40bd d072 a03b 8090 b7bb acb7 103d
000000b0: cc0a 493d e09b 793d bc08 0a3d 9e6b 893d
000000c0: 2ddf 4abd 804b 0e3d 0d7e 44bd 40d9 3dbb
000000d0: 0c53 393d c4cb 043d 40f6 253d 841b 8abc
000000e0: f810 e1bc f0c7 6ebd 09f0 9abd 15ed 48bd
000000f0: ce0b 01bd acf2 88bc cfed 47bd 5489 ad3d
00000100: b991 63bd c799 78bd 5a42 873d d43a 873c
00000110: 0036 1eb9 60c2 0a3c 44f0 a63d 80c7 153a
00000120: 4412 b6bd 68a7 163d 86c2 5bbd 2654 95bd
00000130: 2405 72bd 202c 3ebb 10ff 0d3d 33ae 34bd
00000140: 3ccc e83c 12cd 813d 0c1f 953c 9088 f83b
0.04008858 -0.015131436 -0.034508165 -0.064094 -0.068341285 -0.008175112 -0.027328253 -0.033689655
0.011747107 -0.011037551 0.044177666 0.002454549 -0.033851694 -0.08359905 -0.08515742 0.08817899
-0.09000329 -0.06839209 -0.009154938 0.041586623 0.04598567 -0.044464637 0.07354945 -0.014070407
0.023370728 -0.040357538 0.053390518 -0.008826584 -0.0711602 -0.047938343 -0.055384547 -0.027896643
0.08228773 0.057268918 0.029963799 0.0446326 -0.054397754 0.041020542 0.044175863 -0.0045678318
-0.04702972 0.004896499 -0.0056019425 0.035331413 0.049082562 0.06093967 0.033699736 0.067099795
-0.049529243 0.03473997 -0.047971774 -0.0028968602 0.045245215 0.03242089 0.040518045 -0.016858824
-0.027473912 -0.058296144 -0.07565314 -0.049054224 -0.0315054 -0.016717277 -0.048810776 0.08473459
-0.055558894 -0.06069353 0.066044524 0.016507544 -0.00015088171 0.008469194 0.08151296 0.0005713627
-0.08890203 0.036780745 -0.05365231 -0.07291441 -0.059086934 -0.0029018 0.034667075 -0.04411144
0.028417699 0.06337942 0.01820328 0.007584639

14 f4 [84]
00000000: 0000 803f 0000 803f 0000 803f 0000 803f
00000010: 0000 803f 0000 803f 0000 803f 0000 803f
00000020: 0000 803f 0000 803f 0000 803f 0000 803f
00000030: 0000 803f 0000 803f 0000 803f 0000 803f
00000040: 0000 803f 0000 803f 0000 803f 0000 803f
00000050: 0000 803f 0000 803f 0000 803f 0000 803f
00000060: 0000 803f 0000 803f 0000 803f 0000 803f
00000070: 0000 803f 0000 803f 0000 803f 0000 803f
00000080: 0000 803f 0000 803f 0000 803f 0000 803f
00000090: 0000 803f 0000 803f 0000 803f 0000 803f
000000a0: 0000 803f 0000 803f 0000 803f 0000 803f
000000b0: 0000 803f 0000 803f 0000 803f 0000 803f
000000c0: 0000 803f 0000 803f 0000 803f 0000 803f
000000d0: 0000 803f 0000 803f 0000 803f 0000 803f
000000e0: 0000 803f 0000 803f 0000 803f 0000 803f
000000f0: 0000 803f 0000 803f 0000 803f 0000 803f
00000100: 0000 803f 0000 803f 0000 803f 0000 803f
00000110: 0000 803f 0000 803f 0000 803f 0000 803f
00000120: 0000 803f 0000 803f 0000 803f 0000 803f
00000130: 0000 803f 0000 803f 0000 803f 0000 803f
00000140: 0000 803f 0000 803f 0000 803f 0000 803f
1.0 1.0 1.0 1.0 1.0 1.0 1.0 1.0
1.0 1.0 1.0 1.0 1.0 1.0 1.0 1.0
1.0 1.0 1.0 1.0 1.0 1.0 1.0 1.0
1.0 1.0 1.0 1.0 1.0 1.0 1.0 1.0
1.0 1.0 1.0 1.0 1.0 1.0 1.0 1.0
1.0 1.0 1.0 1.0 1.0 1.0 1.0 1.0
1.0 1.0 1.0 1.0 1.0 1.0 1.0 1.0
1.0 1.0 1.0 1.0 1.0 1.0 1.0 1.0
1.0 1.0 1.0 1.0 1.0 1.0 1.0 1.0
1.0 1.0 1.0 1.0 1.0 1.0 1.0 1.0
1.0 1.0 1.0 1.0

15 f4 [84]
00000000: 0000 0000 0000 0000 0000 0000 0000 0000
00000010: 0000 0000 0000 0000 0000 0000 0000 0000
00000020: 0000 0000 0000 0000 0000 0000 0000 0000
00000030: 0000 0000 0000 0000 0000 0000 0000 0000
00000040: 0000 0000 0000 0000 0000 0000 0000 0000
00000050: 0000 0000 0000 0000 0000 0000 0000 0000
00000060: 0000 0000 0000 0000 0000 0000 0000 0000
00000070: 0000 0000 0000 0000 0000 0000 0000 0000
00000080: 0000 0000 0000 0000 0000 0000 0000 0000
00000090: 0000 0000 0000 0000 0000 0000 0000 0000
000000a0: 0000 0000 0000 0000 0000 0000 0000 0000
000000b0: 0000 0000 0000 0000 0000 0000 0000 0000
000000c0: 0000 0000 0000 0000 0000 0000 0000 0000
000000d0: 0000 0000 0000 0000 0000 0000 0000 0000
000000e0: 0000 0000 0000 0000 0000 0000 0000 0000
000000f0: 0000 0000 0000 0000 0000 0000 0000 0000
00000100: 0000 0000 0000 0000 0000 0000 0000 0000
00000110: 0000 0000 0000 0000 0000 0000 0000 0000
00000120: 0000 0000 0000 0000 0000 0000 0000 0000
00000130: 0000 0000 0000 0000 0000 0000 0000 0000
00000140: 0000 0000 0000 0000 0000 0000 0000 0000
0.0 0.0 0.0 0.0 0.0 0.0 0.0 0.0
0.0 0.0 0.0 0.0 0.0 0.0 0.0 0.0
0.0 0.0 0.0 0.0 0.0 0.0 0.0 0.0
0.0 0.0 0.0 0.0 0.0 0.0 0.0 0.0
0.0 0.0 0.0 0.0 0.0 0.0 0.0 0.0
0.0 0.0 0.0 0.0 0.0 0.0 0.0 0.0
0.0 0.0 0.0 0.0 0.0 0.0 0.0 0.0
0.0 0.0 0.0 0.0 0.0 0.0 0.0 0.0
0.0 0.0 0.0 0.0 0.0 0.0 0.0 0.0
0.0 0.0 0.0 0.0 0.0 0.0 0.0 0.0
0.0 0.0 0.0 0.0

16 f4 [84]
00000000: 0000 0000 0000 0000 0000 0000 0000 0000
00000010: 0000 0000 0000 0000 0000 0000 0000 0000
00000020: 0000 0000 0000 0000 0000 0000 0000 0000
00000030: 0000 0000 0000 0000 0000 0000 0000 0000
00000040: 0000 0000 0000 0000 0000 0000 0000 0000
00000050: 0000 0000 0000 0000 0000 0000 0000 0000
00000060: 0000 0000 0000 0000 0000 0000 0000 0000
00000070: 0000 0000 0000 0000 0000 0000 0000 0000
00000080: 0000 0000 0000 0000 0000 0000 0000 0000
00000090: 0000 0000 0000 0000 0000 0000 0000 0000
000000a0: 0000 0000 0000 0000 0000 0000 0000 0000
000000b0: 0000 0000 0000 0000 0000 0000 0000 0000
000000c0: 0000 0000 0000 0000 0000 0000 0000 0000
000000d0: 0000 0000 0000 0000 0000 0000 0000 0000
000000e0: 0000 0000 0000 0000 0000 0000 0000 0000
000000f0: 0000 0000 0000 0000 0000 0000 0000 0000
00000100: 0000 0000 0000 0000 0000 0000 0000 0000
00000110: 0000 0000 0000 0000 0000 0000 0000 0000
00000120: 0000 0000 0000 0000 0000 0000 0000 0000
00000130: 0000 0000 0000 0000 0000 0000 0000 0000
00000140: 0000 0000 0000 0000 0000 0000 0000 0000
0.0 0.0 0.0 0.0 0.0 0.0 0.0 0.0
0.0 0.0 0.0 0.0 0.0 0.0 0.0 0.0
0.0 0.0 0.0 0.0 0.0 0.0 0.0 0.0
0.0 0.0 0.0 0.0 0.0 0.0 0.0 0.0
0.0 0.0 0.0 0.0 0.0 0.0 0.0 0.0
0.0 0.0 0.0 0.0 0.0 0.0 0.0 0.0
0.0 0.0 0.0 0.0 0.0 0.0 0.0 0.0
0.0 0.0 0.0 0.0 0.0 0.0 0.0 0.0
0.0 0.0 0.0 0.0 0.0 0.0 0.0 0.0
0.0 0.0 0.0 0.0 0.0 0.0 0.0 0.0
0.0 0.0 0.0 0.0

17 f4 [84]
00000000: 0000 803f 0000 803f 0000 803f 0000 803f
00000010: 0000 803f 0000 803f 0000 803f 0000 803f
00000020: 0000 803f 0000 803f 0000 803f 0000 803f
00000030: 0000 803f 0000 803f 0000 803f 0000 803f
00000040: 0000 803f 0000 803f 0000 803f 0000 803f
00000050: 0000 803f 0000 803f 0000 803f 0000 803f
00000060: 0000 803f 0000 803f 0000 803f 0000 803f
00000070: 0000 803f 0000 803f 0000 803f 0000 803f
00000080: 0000 803f 0000 803f 0000 803f 0000 803f
00000090: 0000 803f 0000 803f 0000 803f 0000 803f
000000a0: 0000 803f 0000 803f 0000 803f 0000 803f
000000b0: 0000 803f 0000 803f 0000 803f 0000 803f
000000c0: 0000 803f 0000 803f 0000 803f 0000 803f
000000d0: 0000 803f 0000 803f 0000 803f 0000 803f
000000e0: 0000 803f 0000 803f 0000 803f 0000 803f
000000f0: 0000 803f 0000 803f 0000 803f 0000 803f
00000100: 0000 803f 0000 803f 0000 803f 0000 803f
00000110: 0000 803f 0000 803f 0000 803f 0000 803f
00000120: 0000 803f 0000 803f 0000 803f 0000 803f
00000130: 0000 803f 0000 803f 0000 803f 0000 803f
00000140: 0000 803f 0000 803f 0000 803f 0000 803f
1.0 1.0 1.0 1.0 1.0 1.0 1.0 1.0
1.0 1.0 1.0 1.0 1.0 1.0 1.0 1.0
1.0 1.0 1.0 1.0 1.0 1.0 1.0 1.0
1.0 1.0 1.0 1.0 1.0 1.0 1.0 1.0
1.0 1.0 1.0 1.0 1.0 1.0 1.0 1.0
1.0 1.0 1.0 1.0 1.0 1.0 1.0 1.0
1.0 1.0 1.0 1.0 1.0 1.0 1.0 1.0
1.0 1.0 1.0 1.0 1.0 1.0 1.0 1.0
1.0 1.0 1.0 1.0 1.0 1.0 1.0 1.0
1.0 1.0 1.0 1.0 1.0 1.0 1.0 1.0
1.0 1.0 1.0 1.0

19 f4 [10, 84]
00000000: 4059 7b3b ecf9 cfbd 3908 5fbd 949b a7bc
00000010: 3881 04bc 8fd9 8b3d d1fe 823d 59d3 c23d
00000020: 98d8 98bd 4eaa 98bd dbea 913d 37a0 b63d
00000030: d139 a83d 84da c1bc acdc 56bd 12c4 343d
00000040: 0338 68bd 6432 15bd af7d c13d e8cc 9bbd
00000050: a01c 9bbc a01a b03b bb9c d33d 781b 31bc
00000060: dd1e 83bd 88b3 fdbc 16bf 033d 0085 543b
00000070: b898 f5bc 5b70 cdbd b365 d5bd cc02 e63c
00000080: 82d3 87bd ab53 df3d 661b 243d e4a1 a43c
00000090: 6b4c 8d3d d069 9abc d0a0 08bd 7628 45bd
000000a0: 65f5 71bd d235 053d 28a3 8ebd 483d 2d3c
000000b0: cc58 a2bd a285 aabd 8f4f a53d ed96 67bd
000000c0: f90d de3d 35dc d53d 62a8 5f3d 3e97 84bd
000000d0: 80a5 7a3c 7e0b 8fbd 5021 bdbd c0cb 0c3b
000000e0: d93e 973d 72c0 523d aada 4c3d f2a6 8abd
000000f0: 47f8 853d 5e87 8abd 6dac ca3d 310f 913d
00000100: 27bc bfbd a45d d43c 431c 803d 24a7 cdbc
00000110: 68c6 91bd 2be6 be3d a69f 7a3d aa14 10bd
00000120: 7a9d 6abd 0caf b03c 579a b13d ccee 67bd
00000130: 285d 18bd 0be1 ce3d a08c 38bc 2ce6 31bd
00000140: dd8d c63d a13b 953d 80d2 3abd d88b 02bc
00000150: 313c 863d 829d b9bd 3e2c a8bd a8f0 06bd
00000160: 2e17 603d 801e fb3a 5111 a83d 448a db3c
00000170: 167e 063d 111e debd 5e4c 02bd 2fee a53d
00000180: e205 0ebd 40c4 283b 833e b83d 769a 31bd
00000190: 3f53 68bd 19ef d3bd a212 053d 1097 0abc
000001a0: b3aa babd 74db c6bc 99ae ccbd 40b7 34bb
000001b0: c4bc ed3c 173c 893d d23a 9dbd 79d8 a73d
000001c0: 5e54 353d 1652 513d be6d 3abd d4f2 80bc
000001d0: 285e d5bd 6e13 6f3d 8755 44bd 1637 03bd
000001e0: c0a2 2a3c c257 c4bd 87d3 7abd d6d1 233d
000001f0: 5289 8abd 4e50 383d 8338 a03d 84ad d1bd
00000200: 840f ed3c 0fa1 843d 5b42 9f3d 916d d3bd
00000210: d75e 8abd d080 84bd a5fc 8f3d 0065 fcba
00000220: d063 823b b8f0 ddbd dc8e acbd 5202 20bd
00000230: af60 a93d 864f d8bd 90dc e2bc dcd5 4bbd
00000240: 10fe dcbb 72cd 91bd 680d 3fbc 60fc 7e3b
00000250: 3471 12bd 072b d63d 133f 9b3d a8e7 29bd
00000260: 3651 5f3d a696 d4bd 080f 62bd e2ff ccbd
00000270: a38b cf3d f72a ca3d 5030 5a3c 8035 22bc
00000280: 0cbf 38bd 24a9 84bd 2101 75bd deba 043d
00000290: a0e5 f63b 3100 d13d 12f2 5d3d 43ee 68bd
000002a0: b7e6 8f3d 3b81 ce3d 5c44 8a3c 10d8 a6bd
000002b0: 6654 183d 34c5 2ebd a450 75bd c419 dc3c
000002c0: 1602 2c3d 3b31 b0bd 336d c93d b042 a0bb
000002d0: fab4 5a3d fe07 2b3d 9eee aebd aaff a3bd
000002e0: c035 98bd be7f 80bd 3095 aabd c3a8 41bd
000002f0: 64ac 8ebc 55f5 c93d f08f b9bb 1eee 8cbd
00000300: 461c 363d a077 f33b a201 2e3d 72a5 713d
00000310: 875b a43d 11df debd a163 d13d 6ca0 ec3c
00000320: f57a c53d 546f d7bc 877c aebd 6b73 82bd
00000330: a1c8 b93d 7c43 9cbd 4c43 bc3c 00b5 883b
00000340: 5aa6 0d3d 2152 adbd 01c2 5bbd a314 d73d
00000350: f349 8a3d 7a83 3f3d 7aac adbd e06c 003c
00000360: 3245 cfbd a4ac 05bd 7192 97bd 10ad e8bb
00000370: 7f99 cd3d 285c 233c e3e6 893d 104f 47bc
00000380: 1440 e83c 89e4 a6bd 30e7 22bc 430f 48bd
00000390: c5a4 8b3d c3bb 78bd c431 8c3c 2dab 5fbd
000003a0: 02a3 7dbd 6337 c53d 8da1 d63d d974 c2bd
000003b0: be42 76bd 694e c33d f984 41bd 6a1c aabd
000003c0: 5c1e a5bc 8c88 aa3c a0de 103b 4af8 5f3d
000003d0: f98c ca3d 0df5 9d3d 8b87 6fbd 02af 1b3d
000003e0: a345 74bd 14cb 38bd 8a72 6c3d d3a5 46bd
000003f0: 6df1 8c3d 4195 7fbd 6d96 973d 8a7d d7bd
0.0038352758 -0.10155091 -0.0544512 -0.020459928 -0.008087449 0.068286054 0.063962586 0.095129676
-0.07463187 -0.07454358 0.07124873 0.08917277 0.082141526 -0.023663767 -0.052456543 0.0441323
-0.056694042 -0.03642501 0.094478 -0.07607442 -0.018934548 0.0053742677 0.10332628 -0.010809772
-0.06402371 -0.030969396 0.032164656 0.0032427907 -0.029980049 -0.10031196 -0.10419788 0.028077506
-0.06632139 0.1090463 0.04006519 0.020096727 0.06899341 -0.018849283 -0.033356488 -0.04813429
-0.059071917 0.03252203 -0.06964713 0.010573693 -0.07927093 -0.0832627 0.08071815 -0.05654042
0.10842509 0.10442392 0.05460394 -0.0647416 0.015298247 -0.06984614 -0.092348695 0.002148375
0.07385034 0.05145306 0.05001322 -0.067701235 0.06541496 -0.067641005 0.09896169 0.07082976
-0.09362059 0.025923558 0.062553905 -0.025104113 -0.07117921 0.09321245 0.06118741 -0.035175957
-0.057279088 0.021567844 0.08672016 -0.05662422 -0.037198216 0.10101517 -0.011263996 -0.0434324
0.09695027 0.07286764 -0.045610905 -0.007967912 0.06554449 -0.09063245 -0.082115635 -0.03294435
0.054709606 0.001915887 0.08206428 0.026799329 0.03283509 -0.108455785 -0.03181111 0.081020705
-0.03467358 0.002575174 0.08996298 -0.043360196 -0.056720015 -0.10348339 0.032488473 -0.008458868
-0.091145895 -0.024274565 -0.09994239 -0.0027575046 0.029020675 0.06700914 -0.07677235 0.08195586
0.044269912 0.051103674 -0.045514815 -0.01574079 -0.104183495 0.05836814 -0.047933128 -0.032034956
0.010414779 -0.09587051 -0.061236884 0.039995037 -0.06764473 0.04499846 0.07823279 -0.102381736
0.028938062 0.06476032 0.07776328 -0.103236325 -0.067563705 -0.064698815 0.0703061 -0.0019256175
0.0039791837 -0.10836929 -0.08425686 -0.039064713 0.08270394 -0.10562043 -0.027693063 -0.0497645
-0.006744154 -0.07119264 -0.011660911 0.0038907751 -0.03575249 0.104574256 0.0758039 -0.04148069
0.05452081 -0.103802964 -0.055190116 -0.10009743 0.101340555 0.09871476 0.013317183 -0.009900451
-0.04510407 -0.064775735 -0.05981553 0.032404773 0.0075346977 0.10205115 0.054185934 -0.05686785
0.07026427 0.100832425 0.0168783 -0.081466794 0.037189864 -0.042668536 -0.059891358 0.026867755
0.041994177 -0.0860314 0.09835281 -0.0048907623 0.05339525 0.04175567 -0.08541606 -0.080077484
-0.07432127 -0.06274365 -0.083292365 -0.047280084 -0.017416187 0.098612465 -0.0056629106 -0.06881355
0.044460557 0.007430032 0.042482026 0.05899567 0.0802527 -0.1088239 0.10224081 0.028885089
0.09642593 -0.026298203 -0.085198455 -0.063696705 0.0907147 -0.07630059 0.022981308 0.0041719675
0.034582473 -0.084629305 -0.053651813 0.10501983 0.06752386 0.046756245 -0.08480163 0.007838458
-0.1012062 -0.032635346 -0.07400978 -0.007100709 0.10039043 0.009970702 0.06733491 -0.012164846
0.028350867 -0.08149058 -0.009942815 -0.04884268 0.06818537 -0.06072594 0.017113574 -0.054606605
-0.061923034 0.09629705 0.10480032 -0.09494943 -0.060122244 0.0953644 -0.047245953 -0.08306201
-0.020156078 0.020817064 0.002210535 0.054680146 0.0989017 0.07712755 -0.058478873 0.038008697
-0.059636723 -0.045115545 0.05772642 -0.048497986 0.06881986 -0.0623982 0.07401738 -0.105219916

2 f4 [6]
00000000: abc4 a93e d878 23be 5887 403d 706f 273e
00000010: 53c2 893e e40b ae3d
0.33157858 -0.15964067 0.047004074 0.16351104 0.2690607 0.08498362

20 f4 [10]
00000000: a018 e33b e743 adbd 880b 9fbc ce52 0fbd
00000010: 885d 89bd 03ef b63d 84cd 3cbd c087 83bd
00000020: 3054 9dbd 7104 9ebd
0.0069304258 -0.08460217 -0.019414678 -0.034991078 -0.06707293 0.089323066 -0.046094432 -0.06422377
-0.07682073 -0.07715691

3 f4 [16, 6, 5, 5]
00000000: 602b d1bc 7c36 a7bc 1685 08bd 965d 2a3d
00000010: a41f ebbc eafc 823d d64b a3bd e4ab d63c
00000020: b89f 353c c8b1 e93c 2268 5dbd 84e4 b33c
00000030: c369 a0bd 0c69 cf3c 0029 e8ba 2870 e83c
00000040: 20df 47bb d670 983d 308d 3bbc aee9 3ebd
00000050: c0bd bbbb 00ac b9b9 449f 0dbd e0cd e9bc
00000060: cde3 92bd 41d4 6dbd 38d5 0cbc f47a 833d
00000070: b8f1 3c3d d85e 2b3c 9a34 93bd c8d0 50bc
00000080: 207e e93c 8450 6d3d 54de 523d 40ec 423d
00000090: e81c 823d f81e 0b3d ea36 853d 18a8 5d3d
000000a0: aef6 823d 18bc 773d 7031 233d 98af 823d
000000b0: dcfb 58bd 609e 1f3c ff2b 2bbd 28d7 df3c
000000c0: ece9 40bd e092 30bd e1c1 29bd 5999 36bd
000000d0: 48ce c23c 54b1 703d 68b7 093d 985c 0c3c
000000e0: 8010 783a 8854 843c 10de d43c 2041 003c
000000f0: 5019 8a3b f4e1 843d 10f6 c33c 8606 b9bc
00000100: b09e 743d 90d0 903c 2060 ba3b aa89 49bd
00000110: 1896 65bc bca7 403d e03b c93b fc3e 1d3d
00000120: e86f 76bc 04d2 693d 1c35 a83c df54 10bd
00000130: 36f7 93bd 109d ff3c 7e0d 803d 905c 343d
00000140: 3a37 8d3d b890 223c 6c58 633d 8673 9d3d
00000150: be31 8b3d b437 8f3c 3846 43bc 7014 1dbd
00000160: 6883 29bd 6ebd 263d e6ff 923d 2792 a5bd
00000170: fc32 a73d b084 7bbd 0c93 ab3c 4866 503d
00000180: fa11 0fbd c007 943b bcaf 91bc 5424 793d
00000190: 92b3 94bd c303 64bd 987a 703d ccda 3d3d
000001a0: 1d96 16bd a076 a9bc 8ec2 253d 2e77 62bd
000001b0: 4084 9c3c ac5c a33d 0536 a7bd 9b61 06bd
000001c0: b2b7 0bbd cc2d 653d 828f 2cbd f84f 263c
000001d0: d83b cdbc 8150 35bd 3a9f 05bd 7072 ab3b
000001e0: 94ce 8a3d 1299 2a3d 244e 6c3d 2913 0bbd
000001f0: e253 d3bc 5f9c a6bd 2463 943c facf 45bd
00000200: 807e 9abb f498 81bc 405b c8bb 0cbe d33c
00000210: 7ac5 123d e47d eb3c a893 94bd 005e 22bc
00000220: 7546 92bd 2261 5ebd d036 bbbb 8cd0 6e3d
00000230: 3843 963d 286e 873c 8bb3 41bd 6e2f 943d
00000240: 9e15 bdbc 7604 2c3d 3900 31bd 0050 d637
00000250: b25d b2bc 8417 9e3c 9031 643d 78a8 18bc
00000260: 60b7 343d 4167 84bd 0032 563b 186b 26bc
00000270: c84a 7a3d ba2d 82bd d200 79bd b0fc 0d3c
00000280: f0d4 833b 90ab 35bc 8aef 96bd 2898 52bc
00000290: f692 d2bc 58ad 8cbc bc55 b7bc 3abb 983d
000002a0: 9040 52bc ca81 093d 90ae 75bd a0dd 4d3d
000002b0: c780 0cbd 3898 4fbc fb4c 8dbd 88ea 59bd
000002c0: f877 b53c d2a4 b9bc 8edc 123d 3015 be3b
000002d0: 2427 753d 387a 78bd 286f 303d e6f3 8e3d
000002e0: b454 8a3c ae35 63bd 1672 9d3d 5d0f a1bd
000002f0: 5dcb 82bd 7097 2cbc 88cf 363d bc4f ccbc
00000300: eedd 68bd a00d 583b c63c e8bc 30b0 50bd
00000310: 30ac 6bbd cae0 42bd 60aa 7f3d d0c7 3e3d
00000320: 10e5 0b3c 08f7 e13c 08a3 e13c 2059 793c
00000330: b0ae 4e3c aacc 91bd c87b 573d 1e38 833d
00000340: 8c8e 61bd ef88 95bd 8074 77bb 5066 1d3c
00000350: e8bf c83c 1369 4dbd a427 863d 44e5 e73c
00000360: 1092 813d a47f a13d c89f 903d cc88 6a3d
00000370: 7e0f 9b3d 8a69 dbbc 70d2 b73c f2a7 1d3d
00000380: 0a75 8a3d b6f2 953d 3d00 3fbd c916 71bd
00000390: b1e2 31bd b7ac 95bd c065 56bd d822 143c
000003a0: f090 55bd 0012 14bb 007e 0fb9 5ea2 68bd
000003b0: f2f5 b0bc 8c58 6b3d 6899 b33c 2ceb bdbc
000003c0: 1018 9bbd f68c 1c3d 10be 36bd feff 9a3d
000003d0: 7c5b 613d 009a 363a 0c05 98bd 7000 8cbb
000003e0: 86bb d5bc a3c2 56bd 4c00 993c c8a6 113c
000003f0: a1d8 8fbd 505d 033d 8c86 db3c f2f2 6ebd
-0.025533378 -0.020411722 -0.033330046 0.041593157 -0.02870161 0.06395896 -0.07973449 0.02620501
0.011085443 0.028527156 -0.054054387 0.02195955 -0.078326724 0.025318645 -0.0017712414 0.028373793
-0.0030497983 0.07443397 -0.011447236 -0.046609573 -0.005729407 -0.000354141 -0.034575716 -0.028540552
-0.07172356 -0.05806375 -0.008595757 0.06419936 0.04612896 0.010459624 -0.07187767 -0.01274509
0.028502524 0.057938114 0.05148156 0.047588587 0.0635317 0.03396508 0.06504615 0.054115385
0.06394707 0.060482115 0.03984207 0.06381148 -0.052974567 0.009742349 -0.041790005 0.027324274
-0.047098085 -0.04310882 -0.041444663 -0.044579837 0.023780003 0.058762863 0.033622175 0.008566998
0.0009462908 0.016153589 0.025984794 0.007828027 0.0042144433 0.0648841 0.023921043 -0.022586118
0.05972165 0.017677575 0.0056877285 -0.049203552 -0.014012836 0.047034964 0.006141171 0.038390145
-0.015041329 0.057085052 0.020533137 -0.03523719 -0.07224886 0.031202823 0.062525734 0.044033587
0.06895299 0.009922199 0.055504248 0.0768805 0.06796597 0.017482616 -0.011918597 -0.03834957
-0.041385084 0.040707998 0.07177715 -0.08084517 0.081640214 -0.061405838 0.02094414 0.050878793
-0.034929253 0.0045175254 -0.017783992 0.06082566 -0.07260813 -0.05566765 0.058710665 0.04635124
-0.036764253 -0.020686448 0.040468745 -0.05528944 0.01910603 0.0797666 -0.081646 -0.032807928
-0.034110732 0.05595188 -0.042129047 0.010150902 -0.02505295 -0.044266228 -0.032622553 0.005232148
0.06777683 0.041649885 0.05769171 -0.03395382 -0.025796834 -0.08135294 0.01811368 -0.048294045
-0.004714787 -0.015820004 -0.0061143935 0.025847457 0.03583286 0.028746553 -0.07254726 -0.009910107
-0.07142345 -0.05429185 -0.0057133213 0.058304355 0.0733704 0.016532019 -0.047290366 0.07235609
-0.023081597 0.04199644 -0.043213103 2.554804e-05 -0.021773193 0.019298322 0.05571133 -0.00931751
0.044120193 -0.064650066 0.003268361 -0.010157369 0.061106473 -0.06356378 -0.060791798 0.008666202
0.004023187 -0.011088267 -0.07369907 -0.01285366 -0.025704842 -0.0171725 -0.022379749 0.07457586
-0.012832776 0.033571042 -0.05998093 0.050260186 -0.0343025 -0.012670569 -0.068994485 -0.053202182
0.022151932 -0.0226616 0.03585487 0.0058008656 0.05985178 -0.060663432 0.043074757 0.06980114
0.016886093 -0.055471115 0.07687776 -0.078642584 -0.06386445 -0.010534152 0.04463151 -0.024940364
-0.056852274 0.0032967106 -0.028349292 -0.050949275 -0.057537258 -0.047577657 0.06241834 0.046577275
0.0085384995 0.027583614 0.02754356 0.015219003 0.012614891 -0.07119115 0.05260828 0.06407188
-0.055067584 -0.07301509 -0.0037758648 0.009606913 0.02450557 -0.050149035 0.065505296 0.028307565
0.06326687 0.07885674 0.07061726 0.057259366 0.07571314 -0.026783723 0.022439212 0.038490243
0.06760605 0.07321684 -0.046631087 -0.05885962 -0.04342908 -0.07308333 -0.05234313 0.0090415105
-0.052140176 -0.0022593737 -0.00013684481 -0.05679547 -0.02160165 0.05745749 0.021923736 -0.023183428
-0.07572949 0.03822037 -0.04461485 0.07568358 0.055018887 0.0006965697 -0.074228376 -0.004272513
-0.026090395 -0.052431714 0.0186769 0.008889861 -0.070237406 0.03207141 0.026797555 -0.05833716

4 f4 [16]
00000000: dac0 a23d e0f8 7e3c 8cda f73c 7ecc 2d3d
00000010: bcd8 8dbd 045a 11bd 04ba 8abd d4fe 8bbc
00000020: 56a5 75bd 4e81 66bd 2cb4 af3c 44df 1a3d
00000030: f40c e03c 50f0 523d 206a 1f3b 48b0 b0bc
0.0794694 0.015562266 0.030255578 0.042431347 -0.069261044 -0.035486236 -0.06773761 -0.017089285
-0.05997213 -0.05627566 0.021448217 0.03781058 0.027349927 0.05149871 0.002432473 -0.021568432

5 f4 [120, 400]
00000000: b0de 6c3b a038 e9bc 2811 a03b b180 213d
00000010: 402d 853b 00fa 34bd 45ce 3bbd 2967 0c3d
00000020: fbf8 37bd 63d9 a6bc 4de5 2c3d 00b7 153b
00000030: ec53 91bc e865 ef3b a816 253c a885 34bd
00000040: f261 a63c b997 2b3d b2fc ea3c a7ed 31bd
00000050: 0036 2fbc 7443 6fbc faad 97bc 1b48 26bd
00000060: 0076 70b9 a6fa cc3c dace ab3c 8b11 12bd
00000070: be7b 9e3c 823e 24bd e209 9f3c b76d 3e3d
00000080: b892 443c b04d acbc 6ea7 f93c b296 28bd
00000090: eb5e 36bd 906c 04bd b8e8 6cbc aa05 85bc
000000a0: b434 3ebc fa0b a33c eda8 efbc d53a 02bd
000000b0: 2d5b 14bd 586b 23bd 8a41 b0bc a40d 4f3c
000000c0: b30a 49bd 8089 14bc 09df 213d 40b1 48ba
000000d0: 6023 28bb a09e 4abc 0aa5 e8bc b3e1 fbbc
000000e0: fd0f babc c094 9b3a 029d fb3c 6007 a83a
000000f0: 05f8 333d c4f0 713c 8b72 353d f725 363d
00000100: 8ad2 35bd 3084 a63b 3b5f 123d 2c13 043c
00000110: 86a8 ca3c c278 853c 9159 2c3d 1fd3 42bd
00000120: c44e 7a3c 401c 38bc f2ba bb3c 9139 103d
00000130: 0c77 08bd c95a 373d b93a 453d 750d 20bd
00000140: 468f b13c 9084 dfbc d017 603b 6e60 e83c
00000150: 6321 a8bc aa5b 37bd 5e6d 813c 23e2 20bd
00000160: 4d0c 2a3d 3022 cdbb 607e 31bd 40f3 e1bb
00000170: fb73 0fbd ca43 c53c 8060 2dbd f00b b6bc
00000180: f24b ad3c 2e2f ef3c c075 b5ba 3eff b03c
00000190: 4db3 183d 3277 0dbd 00bc 9d3b 452b 47bd
000001a0: 34d0 98bc d9fd 1e3d 8a0f 94bc 8a58 88bc
000001b0: 4d69 ebbc 76f9 e33c 58ac c53b 4a54 00bd
000001c0: 3006 de3b 1295 ff3c 8c52 243c a774 f6bc
000001d0: 105b a1bc 78e1 3abd e30e 123d 8130 0b3d
000001e0: 1ca4 7d3c 9a73 ff3c 9efb 983c 932e 15bd
000001f0: 5130 1f3d 5c1c 623c 4bb0 083d 7bb6 13bd
00000200: e8cc 0cbc b03e 9abb 1b17 0a3d 4c2d 85bc
00000210: 60f6 153c 52bc f93c 5499 213c 3d01 203d
00000220: e035 36bb a082 123c 9747 9ebc 6f84 103d
00000230: b2ed a23c 0a44 01bd e882 96bb 611d 373d
00000240: d95e 333d ce5f c83c e2cf ef3c ad50 afbc
00000250: 0a2e cdbc 868e 0fbd f3ae 99bc eac3 91bc
00000260: 6876 e03b d8e8 e73b 93c3 eebc b418 443c
00000270: ae01 853c 297e 323d 42f2 0ebd 5cd2 523c
00000280: 8ed4 ea3c e6fd a83c fe8e f23c 6e36 b93c
00000290: 0ab8 a8bc 034c b6bc a27c f93c 141a 233c
000002a0: 7f30 0e3d 4a5c 37bd a9df 403d f3db b5bc
000002b0: 32f9 c53c ad44 e3bc 30f6 0abb 7d03 0bbd
000002c0: f025 bdbb 6d20 44bd 12bf fc3c 59a0 0b3d
000002d0: 4ba7 1f3d c088 8cba e828 083c 341f 60bc
000002e0: 7273 a13c 0577 3a3d 55d9 1a3d 4086 2abc
000002f0: 60e4 3d3c f016 1abd a315 fabc 6671 c63c
00000300: 0d6d febc 7836 15bc b497 283c 6603 f43c
00000310: 208d 4bbc 4aba a63c 40cc 40bd 00a0 2b38
00000320: 4cc7 113c 7024 e5bb 04a8 88bc c842 45bc
00000330: d0af 1abd fbdb 3bbd 39a9 363d daef a9bc
00000340: c2d5 dc3c 1a58 00bd a077 273c 50ac 1f3b
00000350: dd0a f6bc 1275 c43c c568 3e3d 5cc1 8dbc
00000360: 43ce aebc 31df 323d 5864 16bc 509d 2bbb
00000370: e836 0dbc 003e 70ba f411 70bc 17cf e4bc
00000380: 35df 3d3d ae14 06bd 6e5d 08bd 56aa a93c
00000390: 3848 39bd 1246 803c 0ff8 173d fd45 b8bc
000003a0: d691 d13c 06aa 873c b07b 4b3b 22e6 e33c
000003b0: 5810 3e3c e0a8 f3bc 6db2 143d 9044 fe3b
000003c0: 7096 943b f08a e7bc 038d eebc ae9c ea3c
000003d0: c05e f5bc e00a 6d3b 5190 1d3d 47c4 47bd
000003e0: 2016 1bbd 5464 26bc 0f70 203d 5179 4a3d
000003f0: 9d20 24bd 3723 313d f38f 0c3d e9a0 383d
0.0036143474 -0.028469384 0.0048848577 0.03942937 0.004064232 -0.04418373 -0.04585101 0.03427807
-0.04491518 -0.02036733 0.042210866 0.0022844672 -0.017740212 0.0073058493 0.010076202 -0.044072777
0.020310376 0.04189274 0.028684948 -0.043439534 -0.010694027 -0.014603484 -0.018515576 -0.04059611
-0.00022932142 0.025021862 0.020972658 -0.03566126 0.019346114 -0.040098675 0.019413892 0.04649135
0.011997871 -0.021033138 0.030475345 -0.04115934 -0.044524115 -0.032330096 -0.014459781 -0.016238052
-0.011609245 0.019903172 -0.029255355 -0.031794388 -0.036219765 -0.039897293 -0.021515626 0.0126375295
-0.04908247 -0.009065986 0.039519344 -0.0007655807 -0.002565585 -0.012366921 -0.02839901 -0.03074727
-0.022712702 0.0011869892 0.030714516 0.0012819581 0.0439377 0.014766876 0.04429869 0.0444698
-0.04439024 0.005081676 0.03573535 0.008061212 0.024738561 0.016292933 0.042077605 -0.047564622
0.015277568 -0.011237204 0.02291629 0.03521115 -0.033316657 0.044764314 0.048151705 -0.039075334
0.021674763 -0.02728489 0.003419388 0.028366294 -0.020523733 -0.044765152 0.01579922 -0.03927816
0.041515637 -0.006260179 -0.04333341 -0.0068954527 -0.035022717 0.024080176 -0.042328358 -0.02222249
0.021154378 0.029197302 -0.0013844296 0.021606084 0.03728037 -0.0345375 0.004813671 -0.04862525
-0.018653966 0.038816307 -0.018073816 -0.016643781 -0.028736735 0.027828913 0.006032508 -0.031330384
0.00677564 0.031199012 0.010029446 -0.030084921 -0.019696742 -0.04562518 0.03565873 0.033981804
0.015481021 0.031183053 0.018674668 -0.03642137 0.038864437 0.013800707 0.03337125 -0.0360627
-0.008593775 -0.00470718 0.03371344 -0.01625695 0.009152979 0.030485306 0.009863216 0.03906368
-0.0027803108 0.008942276 -0.019321246 0.03528255 0.019888733 -0.031559028 -0.004593242 0.044705752
0.043791626 0.024459746 0.029273931 -0.021400774 -0.025046367 -0.03504803 -0.01876018 -0.017793614
0.0068500526 0.0070773177 -0.029145991 0.01196878 0.016236152 0.043577347 -0.034899004 0.012867536
0.028665807 0.02062888 0.0296092 0.022608962 -0.02059557 -0.022253042 0.030454937 0.009954948
0.03471422 -0.044765748 0.0470883 -0.022199607 0.024166677 -0.027742708 -0.0021203868 -0.033938874
-0.005772345 -0.047882486 0.030852828 0.034088466 0.038977902 -0.0010721907 0.008310534 -0.013679314
0.019708369 0.045523662 0.03780492 -0.010407984 0.011590093 -0.03761953 -0.030527895 0.024223994
-0.031057859 -0.009107225 0.010290075 0.029786777 -0.012423784 0.020352501 -0.047069788 4.091859e-05
0.008897614 -0.006992869 -0.016681679 -0.012039848 -0.037765324 -0.045864087 0.044594977 -0.020744253
0.026957396 -0.03133402 0.010221392 0.002436418 -0.030034477 0.023981605 0.046486635 -0.017304115
-0.021338588 0.043669883 -0.009179197 -0.0026186295 -0.008619048 -0.0009164512 -0.014652718 -0.02793078
0.046355445 -0.032734565 -0.033292226 0.020711105 -0.04523489 0.015658412 0.0371018 -0.02249431
0.025582235 0.016560566 0.0031049065 0.027819697 0.011600576 -0.029743612 0.036302973 0.007759638
0.004534535 -0.028264493 -0.029119974 0.028639164 -0.029952407 0.0036169812 0.03846771 -0.04877117
-0.037862897 -0.010155756 0.039169367 0.049432103 -0.040070165 0.043246474 0.03431697 0.04507533

6 f4 [120]
00000000: 3ad6 893c 0e05 ec3c b2c6 eb3c 8248 05bd
00000010: 36c8 813c 1cd2 5a3c d94b 343d 003c 72bb
00000020: 30ca 36bd 72a6 983c 11a4 0c3d 14dd 323c
00000030: 0da1 42bd 8d43 05bd 4073 e63b 5725 9cbc
00000040: e088 213b c9a5 1a3d cafb 95bc 92a4 e73c
00000050: 6226 883c 4219 c03c ee86 863c 13d8 0fbd
00000060: 928a ad3c 8040 f1bc 1a31 15bd 3050 30bb
00000070: 2555 4b3d 52ee 0ebd 5099 45bb 0076 af38
00000080: 3f3a 393d d0e3 22bb 8ddb e8bc 7d5b 27bd
00000090: 10d1 ba3b 37a8 a3bc a006 76bc 2e57 af3c
000000a0: 666e 80bc d8cb 333c ae9b 1dbd 635f 13bd
000000b0: 3453 183c 4f26 483d f2d6 ca3c 04b7 563c
000000c0: 2514 27bd a141 443d acc6 623c 9738 f3bc
000000d0: aec6 de3c 4f8c 283d 6db2 29bd 973f a5bc
000000e0: 00ec 69bc da62 32bd b0c8 de3b b7aa fcbc
000000f0: b0a7 ad3b 9da9 e7bc d6ac ca3c 7b29 1b3d
00000100: 9598 37bd aa9f e43c b834 4ebc 0065 903a
00000110: 00f6 debc 3999 0b3d 0f38 253d e744 0f3d
00000120: f683 22bd 80a0 debc 9b64 473d d3c7 e0bc
00000130: b8c7 48bd 5861 03bc 355a 4c3d 2336 123d
00000140: d799 123d c064 ebbb a2ca e13c b294 883c
00000150: 5b36 473d c595 013d 8d02 483d 4c12 343c
00000160: fd6a 16bd 5b99 093d c760 9dbc e2f5 853c
00000170: 08ab 01bd 2cf3 293c c0b6 44ba 9e14 1cbd
00000180: 6050 97ba 7a56 38bd 62fc 9d3c 0896 123c
00000190: 60ce 103c c051 8dbc d366 48bd fd70 143d
000001a0: 9205 fb3c a7e5 debc c488 653c d537 01bd
000001b0: 8d6b c4bc e518 353d be2c 2cbd d273 c63c
000001c0: 3284 ab3c 9475 1ebc d07f 28bd 38d7 283c
000001d0: d064 bbbc 9b8e 013d 9a95 b3bc cd32 3d3d
0.016825784 0.028811004 0.028781269 -0.032539852 0.015842538 0.013355758 0.044017646 -0.0036962032
-0.044626415 0.018634055 0.034336153 0.010916967 -0.04751687 -0.032535125 0.007032782 -0.019060774
0.0024648234 0.03775576 -0.018308539 0.028276715 0.016619865 0.023449544 0.016421761 -0.035118174
0.02118424 -0.029449701 -0.03642378 -0.0026903264 0.049641747 -0.03489525 -0.0030151196 8.3666295e-05
0.045221563 -0.0024855025 -0.028425002 -0.040858734 0.0057011917 -0.019977672 -0.015016228 0.021403875
-0.015677642 0.010973893 -0.038478546 -0.03597964 0.009297181 0.04886466 0.024760697 0.013105158
-0.040790696 0.04791415 0.013841312 -0.02969007 0.027194347 0.041149434 -0.041429926 -0.020171924
-0.014277458 -0.043551303 0.006798826 -0.030843122 0.005299531 -0.02827912 0.024740618 0.037881356
-0.044823248 0.027908165 -0.012585811 0.0011016428 -0.027216911 0.03408167 0.040336665 0.03497782
-0.03967663 -0.027176142 0.04867993 -0.027439034 -0.04901859 -0.008018814 0.049890716 0.03569616
0.035791244 -0.007183641 0.027562443 0.016672466 0.04863582 0.031636972 0.048830558 0.01099069
-0.036723126 0.033593517 -0.019211186 0.016352598 -0.03165725 0.010372918 -0.00075040385 -0.0381056
-0.0011544339 -0.045004345 0.019285385 0.008946903 0.008838266 -0.017250896 -0.048926186 0.036240567
0.030642305 -0.027209116 0.014009658 -0.031547386 -0.023977065 0.044213194 -0.042034857 0.02422515
0.02093706 -0.0096715875 -0.041137516 0.010305218 -0.02287522 0.03163014 -0.021921922 0.046191026

7 f4 [120]
00000000: 0000 803f 0000 803f 0000 803f 0000 803f
00000010: 0000 803f 0000 803f 0000 803f 0000 803f
00000020: 0000 803f 0000 803f 0000 803f 0000 803f
00000030: 0000 803f 0000 803f 0000 803f 0000 803f
00000040: 0000 803f 0000 803f 0000 803f 0000 803f
00000050: 0000 803f 0000 803f 0000 803f 0000 803f
00000060: 0000 803f 0000 803f 0000 803f 0000 803f
00000070: 0000 803f 0000 803f 0000 803f 0000 803f
00000080: 0000 803f 0000 803f 0000 803f 0000 803f
00000090: 0000 803f 0000 803f 0000 803f 0000 803f
000000a0: 0000 803f 0000 803f 0000 803f 0000 803f
000000b0: 0000 803f 0000 803f 0000 803f 0000 803f
000000c0: 0000 803f 0000 803f 0000 803f 0000 803f
000000d0: 0000 803f 0000 803f 0000 803f 0000 803f
000000e0: 0000 803f 0000 803f 0000 803f 0000 803f
000000f0: 0000 803f 0000 803f 0000 803f 0000 803f
00000100: 0000 803f 0000 803f 0000 803f 0000 803f
00000110: 0000 803f 0000 803f 0000 803f 0000 803f
00000120: 0000 803f 0000 803f 0000 803f 0000 803f
00000130: 0000 803f 0000 803f 0000 803f 0000 803f
00000140: 0000 803f 0000 803f 0000 803f 0000 803f
00000150: 0000 803f 0000 803f 0000 803f 0000 803f
00000160: 0000 803f 0000 803f 0000 803f 0000 803f
00000170: 0000 803f 0000 803f 0000 803f 0000 803f
00000180: 0000 803f 0000 803f 0000 803f 0000 803f
00000190: 0000 803f 0000 803f 0000 803f 0000 803f
000001a0: 0000 803f 0000 803f 0000 803f 0000 803f
000001b0: 0000 803f 0000 803f 0000 803f 0000 803f
000001c0: 0000 803f 0000 803f 0000 803f 0000 803f
000001d0: 0000 803f 0000 803f 0000 803f 0000 803f
1.0 1.0 1.0 1.0 1.0 1.0 1.0 1.0
1.0 1.0 1.0 1.0 1.0 1.0 1.0 1.0
1.0 1.0 1.0 1.0 1.0 1.0 1.0 1.0
1.0 1.0 1.0 1.0 1.0 1.0 1.0 1.0
1.0 1.0 1.0 1.0 1.0 1.0 1.0 1.0
1.0 1.0 1.0 1.0 1.0 1.0 1.0 1.0
1.0 1.0 1.0 1.0 1.0 1.0 1.0 1.0
1.0 1.0 1.0 1.0 1.0 1.0 1.0 1.0
1.0 1.0 1.0 1.0 1.0 1.0 1.0 1.0
1.0 1.0 1.0 1.0 1.0 1.0 1.0 1.0
1.0 1.0 1.0 1.0 1.0 1.0 1.0 1.0
1.0 1.0 1.0 1.0 1.0 1.0 1.0 1.0
1.0 1.0 1.0 1.0 1.0 1.0 1.0 1.0
1.0 1.0 1.0 1.0 1.0 1.0 1.0 1.0
1.0 1.0 1.0 1.0 1.0 1.0 1.0 1.0

8 f4 [120]
00000000: 0000 0000 0000 0000 0000 0000 0000 0000
00000010: 0000 0000 0000 0000 0000 0000 0000 0000
00000020: 0000 0000 0000 0000 0000 0000 0000 0000
00000030: 0000 0000 0000 0000 0000 0000 0000 0000
00000040: 0000 0000 0000 0000 0000 0000 0000 0000
00000050: 0000 0000 0000 0000 0000 0000 0000 0000
00000060: 0000 0000 0000 0000 0000 0000 0000 0000
00000070: 0000 0000 0000 0000 0000 0000 0000 0000
00000080: 0000 0000 0000 0000 0000 0000 0000 0000
00000090: 0000 0000 0000 0000 0000 0000 0000 0000
000000a0: 0000 0000 0000 0000 0000 0000 0000 0000
000000b0: 0000 0000 0000 0000 0000 0000 0000 0000
000000c0: 0000 0000 0000 0000 0000 0000 0000 0000
000000d0: 0000 0000 0000 0000 0000 0000 0000 0000
000000e0: 0000 0000 0000 0000 0000 0000 0000 0000
000000f0: 0000 0000 0000 0000 0000 0000 0000 0000
00000100: 0000 0000 0000 0000 0000 0000 0000 0000
00000110: 0000 0000 0000 0000 0000 0000 0000 0000
00000120: 0000 0000 0000 0000 0000 0000 0000 0000
00000130: 0000 0000 0000 0000 0000 0000 0000 0000
00000140: 0000 0000 0000 0000 0000 0000 0000 0000
00000150: 0000 0000 0000 0000 0000 0000 0000 0000
00000160: 0000 0000 0000 0000 0000 0000 0000 0000
00000170: 0000 0000 0000 0000 0000 0000 0000 0000
00000180: 0000 0000 0000 0000 0000 0000 0000 0000
00000190: 0000 0000 0000 0000 0000 0000 0000 0000
000001a0: 0000 0000 0000 0000 0000 0000 0000 0000
000001b0: 0000 0000 0000 0000 0000 0000 0000 0000
000001c0: 0000 0000 0000 0000 0000 0000 0000 0000
000001d0: 0000 0000 0000 0000 0000 0000 0000 0000
0.0 0.0 0.0 0.0 0.0 0.0 0.0 0.0
0.0 0.0 0.0 0.0 0.0 0.0 0.0 0.0
0.0 0.0 0.0 0.0 0.0 0.0 0.0 0.0
0.0 0.0 0.0 0.0 0.0 0.0 0.0 0.0
0.0 0.0 0.0 0.0 0.0 0.0 0.0 0.0
0.0 0.0 0.0 0.0 0.0 0.0 0.0 0.0
0.0 0.0 0.0 0.0 0.0 0.0 0.0 0.0
0.0 0.0 0.0 0.0 0.0 0.0 0.0 0.0
0.0 0.0 0.0 0.0 0.0 0.0 0.0 0.0
0.0 0.0 0.0 0.0 0.0 0.0 0.0 0.0
0.0 0.0 0.0 0.0 0.0 0.0 0.0 0.0
0.0 0.0 0.0 0.0 0.0 0.0 0.0 0.0
0.0 0.0 0.0 0.0 0.0 0.0 0.0 0.0
0.0 0.0 0.0 0.0 0.0 0.0 0.0 0.0
0.0 0.0 0.0 0.0 0.0 0.0 0.0 0.0

9 f4 [120]
00000000: 0000 0000 0000 0000 0000 0000 0000 0000
00000010: 0000 0000 0000 0000 0000 0000 0000 0000
00000020: 0000 0000 0000 0000 0000 0000 0000 0000
00000030: 0000 0000 0000 0000 0000 0000 0000 0000
00000040: 0000 0000 0000 0000 0000 0000 0000 0000
00000050: 0000 0000 0000 0000 0000 0000 0000 0000
00000060: 0000 0000 0000 0000 0000 0000 0000 0000
00000070: 0000 0000 0000 0000 0000 0000 0000 0000
00000080: 0000 0000 0000 0000 0000 0000 0000 0000
00000090: 0000 0000 0000 0000 0000 0000 0000 0000
000000a0: 0000 0000 0000 0000 0000 0000 0000 0000
000000b0: 0000 0000 0000 0000 0000 0000 0000 0000
000000c0: 0000 0000 0000 0000 0000 0000 0000 0000
000000d0: 0000 0000 0000 0000 0000 0000 0000 0000
000000e0: 0000 0000 0000 0000 0000 0000 0000 0000
000000f0: 0000 0000 0000 0000 0000 0000 0000 0000
00000100: 0000 0000 0000 0000 0000 0000 0000 0000
00000110: 0000 0000 0000 0000 0000 0000 0000 0000
00000120: 0000 0000 0000 0000 0000 0000 0000 0000
00000130: 0000 0000 0000 0000 0000 0000 0000 0000
00000140: 0000 0000 0000 0000 0000 0000 0000 0000
00000150: 0000 0000 0000 0000 0000 0000 0000 0000
00000160: 0000 0000 0000 0000 0000 0000 0000 0000
00000170: 0000 0000 0000 0000 0000 0000 0000 0000
00000180: 0000 0000 0000 0000 0000 0000 0000 0000
00000190: 0000 0000 0000 0000 0000 0000 0000 0000
000001a0: 0000 0000 0000 0000 0000 0000 0000 0000
000001b0: 0000 0000 0000 0000 0000 0000 0000 0000
000001c0: 0000 0000 0000 0000 0000 0000 0000 0000
000001d0: 0000 0000 0000 0000 0000 0000 0000 0000
0.0 0.0 0.0 0.0 0.0 0.0 0.0 0.0
0.0 0.0 0.0 0.0 0.0 0.0 0.0 0.0
0.0 0.0 0.0 0.0 0.0 0.0 0.0 0.0
0.0 0.0 0.0 0.0 0.0 0.0 0.0 0.0
0.0 0.0 0.0 0.0 0.0 0.0 0.0 0.0
0.0 0.0 0.0 0.0 0.0 0.0 0.0 0.0
0.0 0.0 0.0 0.0 0.0 0.0 0.0 0.0
0.0 0.0 0.0 0.0 0.0 0.0 0.0 0.0
0.0 0.0 0.0 0.0 0.0 0.0 0.0 0.0
0.0 0.0 0.0 0.0 0.0 0.0 0.0 0.0
0.0 0.0 0.0 0.0 0.0 0.0 0.0 0.0
0.0 0.0 0.0 0.0 0.0 0.0 0.0 0.0
0.0 0.0 0.0 0.0 0.0 0.0 0.0 0.0
0.0 0.0 0.0 0.0 0.0 0.0 0.0 0.0
0.0 0.0 0.0 0.0 0.0 0.0 0.0 0.0
